…
device='cuda',
world_size=1,
local_rank=-1,
dist_on_itp=False,
dist_url='env://',
rank=0,
gpu=0,
distributed=True,
dist_backend='nccl')
[05:39:59.521088] Loaded OCTA training dataset with 180 images
[05:39:59.521120] Loaded OCTA validation dataset with 20 images
[05:39:59.521155] Sampler_train = <torch.utils.data.distributed.DistributedSampler object at 0x7f1ba6d154b0>
[05:39:59.521182] Sampler_val = <torch.utils.data.distributed.DistributedSampler object at 0x7f1ba6d154e0>
[05:40:00.771327] Model = Denoiser(
  (net): JiT(
    (t_embedder): TimestepEmbedder(
      (mlp): Sequential(
        (0): Linear(in_features=256, out_features=768, bias=True)
        (1): SiLU()
        (2): Linear(in_features=768, out_features=768, bias=True)
      )
    )
    (x_embedder): BottleneckPatchEmbed(
      (proj1): Conv2d(2, 128, kernel_size=(16, 16), stride=(16, 16), bias=False)
      (proj2): Conv2d(128, 768, kernel_size=(1, 1), stride=(1, 1))
    )
    (feat_rope): VisionRotaryEmbeddingFast()
    (feat_rope_incontext): VisionRotaryEmbeddingFast()
    (blocks): ModuleList(
      (0-11): 12 x JiTBlock(
        (norm1): RMSNorm()
        (attn): Attention(
          (q_norm): RMSNorm()
          (k_norm): RMSNorm()
          (qkv): Linear(in_features=768, out_features=2304, bias=True)
          (attn_drop): Dropout(p=0.0, inplace=False)
          (proj): Linear(in_features=768, out_features=768, bias=True)
          (proj_drop): Dropout(p=0.0, inplace=False)
        )
        (norm2): RMSNorm()
        (mlp): SwiGLUFFN(
          (w12): Linear(in_features=768, out_features=4096, bias=True)
          (w3): Linear(in_features=2048, out_features=768, bias=True)
          (ffn_dropout): Dropout(p=0.0, inplace=False)
        )
        (adaLN_modulation): Sequential(
          (0): SiLU()
          (1): Linear(in_features=768, out_features=4608, bias=True)
        )
      )
    )
    (final_layer): FinalLayer(
      (norm_final): RMSNorm()
      (linear): Linear(in_features=768, out_features=256, bias=True)
      (adaLN_modulation): Sequential(
        (0): SiLU()
        (1): Linear(in_features=768, out_features=1536, bias=True)
      )
    )
  )
)
[05:40:00.772609] Number of trainable parameters: 129.928448M
[05:40:00.862289] Base lr: 5.00e-05
[05:40:00.862347] Actual lr: 1.25e-05
[05:40:00.862366] Effective batch size: 64
[05:40:00.870309] AdamW (
Parameter Group 0
    amsgrad: False
    betas: (0.9, 0.95)
    capturable: False
    differentiable: False
    eps: 1e-08
    foreach: None
…
